…
'DKU08*Left*' 	'DKU09*Left*' 	'DKU10*Right*' 	'DKU11*Left*' 	'DKU12*Left*' 	'DKU13*Right*' 
'DKU14*' 		'DKU15*Right*'	'DKU16*Right*' 	'DKU18*Left*' 	'DKU21*Left*' 	'DKU22*'
'DKU24*Left*' 	'DKU25*Left*' 	'DKU26*Left*' 	'DKU27*Left*'	'DKU29*Left*' 	'DKU30*Right*' 	
'DKU31*Left*' 	'DKU32*Right*'

NoTumor:
All non-tumor images/files for these patients and side- all others

Model Results:
1)
Model: "sequential"
_________________________________________________________________
 Layer (type)                Output Shape              Param #   
=================================================================
 conv2d (Conv2D)(3,3)        (None, 4, 4, 3)           30        
                                                                 
 conv2d_1 (Conv2D)           (None, 2, 2, 3)           84        
                                                                 
 flatten (Flatten)           (None, 12)                0         
                                                                 
 dense (Dense) relu          (None, 1000)              13000     
                                                                 
 dense_1 (Dense) relu        (None, 100)               100100    
                                                                 
 dense_2 (Dense) softmax     (None, 2)                 202  
=================================================================
Total params: 113,416
Trainable params: 113,416
Non-trainable params: 0
epochs=10
loss: 0.5647 - accuracy: 0.6859 - val_loss: 0.5653 - val_accuracy: 0.6800
-TESTING-----------------------------
Number of test images: 15933
498/498 [==============================] - 1s 2ms/step - loss: 0.5671 - accuracy: 0.6827
Test loss: 0.5670649409294128
Test accuracy: 0.682733952999115

2)increased number of filters for conv2D layers (3->6 for 1st, 3->36 for 2nd)
Model: "sequential"
_________________________________________________________________
 Layer (type)                Output Shape              Param #   
=================================================================
 conv2d (Conv2D)             (None, 4, 4, 6)           60        
                                                                 
 conv2d_1 (Conv2D)           (None, 2, 2, 36)          1980      
                                                                 
 flatten (Flatten)           (None, 144)               0         
                                                                 
 dense (Dense)               (None, 1000)              145000    
                                                                 
 dense_1 (Dense)             (None, 100)               100100    
                                                                 
 dense_2 (Dense)             (None, 2)                 202       
                                                                 
=================================================================
Total params: 247,342
Trainable params: 247,342
Non-trainable params: 0
_________________________________________________________________
 loss: 0.1470 - accuracy: 0.9335 - val_loss: 0.1411 - val_accuracy: 0.9373
-TESTING-----------------------------
Number of test images: 15933
…
